{"weightsManifest": [{"paths": ["group1-shard1of1"], "weights": [{"dtype": "float32", "name": "dense/kernel", "shape": [784, 128]}, {"dtype": "float32", "name": "dense/bias", "shape": [128]}, {"dtype": "float32", "name": "dense_1/kernel", "shape": [128, 128]}, {"dtype": "float32", "name": "dense_1/bias", "shape": [128]}, {"dtype": "float32", "name": "dense_2/kernel", "shape": [128, 10]}, {"dtype": "float32", "name": "dense_2/bias", "shape": [10]}]}], "modelTopology": {"model_config": {"config": {"layers": [{"config": {"trainable": true, "dtype": "float32", "name": "flatten", "data_format": "channels_last", "batch_input_shape": [null, 28, 28]}, "class_name": "Flatten"}, {"config": {"use_bias": true, "trainable": true, "bias_regularizer": null, "activity_regularizer": null, "activation": "relu", "bias_initializer": {"config": {"dtype": "float32"}, "class_name": "Zeros"}, "kernel_regularizer": null, "units": 128, "dtype": "float32", "kernel_initializer": {"config": {"seed": null, "dtype": "float32"}, "class_name": "GlorotUniform"}, "kernel_constraint": null, "name": "dense", "bias_constraint": null}, "class_name": "Dense"}, {"config": {"use_bias": true, "trainable": true, "bias_regularizer": null, "activity_regularizer": null, "activation": "relu", "bias_initializer": {"config": {"dtype": "float32"}, "class_name": "Zeros"}, "kernel_regularizer": null, "units": 128, "dtype": "float32", "kernel_initializer": {"config": {"seed": null, "dtype": "float32"}, "class_name": "GlorotUniform"}, "kernel_constraint": null, "name": "dense_1", "bias_constraint": null}, "class_name": "Dense"}, {"config": {"use_bias": true, "trainable": true, "bias_regularizer": null, "activity_regularizer": null, "activation": "softmax", "bias_initializer": {"config": {"dtype": "float32"}, "class_name": "Zeros"}, "kernel_regularizer": null, "units": 10, "dtype": "float32", "kernel_initializer": {"config": {"seed": null, "dtype": "float32"}, "class_name": "GlorotUniform"}, "kernel_constraint": null, "name": "dense_2", "bias_constraint": null}, "class_name": "Dense"}], "name": "sequential"}, "class_name": "Sequential"}, "training_config": {"metrics": ["accuracy"], "loss_weights": null, "loss": "sparse_categorical_crossentropy", "sample_weight_mode": null, "weighted_metrics": null, "optimizer_config": {"config": {"beta_1": 0.8999999761581421, "lr": 0.0010000000474974513, "epsilon": 1e-07, "beta_2": 0.9990000128746033, "amsgrad": false, "decay": 0.0}, "class_name": "Adam"}}, "backend": "tensorflow", "keras_version": "2.1.6-tf"}}