{"weightsManifest": [{"weights": [{"name": "dense/kernel", "dtype": "float32", "shape": [784, 128]}, {"name": "dense/bias", "dtype": "float32", "shape": [128]}, {"name": "dense_1/kernel", "dtype": "float32", "shape": [128, 128]}, {"name": "dense_1/bias", "dtype": "float32", "shape": [128]}, {"name": "dense_2/kernel", "dtype": "float32", "shape": [128, 10]}, {"name": "dense_2/bias", "dtype": "float32", "shape": [10]}], "paths": ["group1-shard1of1"]}], "modelTopology": {"model_config": {"class_name": "Sequential", "config": {"layers": [{"config": {"batch_input_shape": [null, 28, 28], "name": "flatten", "dtype": "float32", "data_format": "channels_last", "trainable": true}, "class_name": "Flatten"}, {"config": {"kernel_initializer": {"config": {"seed": null, "dtype": "float32"}, "class_name": "GlorotUniform"}, "bias_constraint": null, "use_bias": true, "bias_initializer": {"config": {"dtype": "float32"}, "class_name": "Zeros"}, "units": 128, "bias_regularizer": null, "dtype": "float32", "activation": "relu", "trainable": true, "kernel_constraint": null, "name": "dense", "kernel_regularizer": null, "activity_regularizer": null}, "class_name": "Dense"}, {"config": {"kernel_initializer": {"config": {"seed": null, "dtype": "float32"}, "class_name": "GlorotUniform"}, "bias_constraint": null, "use_bias": true, "bias_initializer": {"config": {"dtype": "float32"}, "class_name": "Zeros"}, "units": 128, "bias_regularizer": null, "dtype": "float32", "activation": "relu", "trainable": true, "kernel_constraint": null, "name": "dense_1", "kernel_regularizer": null, "activity_regularizer": null}, "class_name": "Dense"}, {"config": {"kernel_initializer": {"config": {"seed": null, "dtype": "float32"}, "class_name": "GlorotUniform"}, "bias_constraint": null, "use_bias": true, "bias_initializer": {"config": {"dtype": "float32"}, "class_name": "Zeros"}, "units": 10, "bias_regularizer": null, "dtype": "float32", "activation": "softmax", "trainable": true, "kernel_constraint": null, "name": "dense_2", "kernel_regularizer": null, "activity_regularizer": null}, "class_name": "Dense"}], "name": "sequential"}}, "training_config": {"sample_weight_mode": null, "loss_weights": null, "weighted_metrics": null, "metrics": ["accuracy"], "optimizer_config": {"class_name": "Adam", "config": {"lr": 0.0010000000474974513, "epsilon": 1e-07, "amsgrad": false, "beta_2": 0.9990000128746033, "beta_1": 0.8999999761581421, "decay": 0.0}}, "loss": "sparse_categorical_crossentropy"}, "keras_version": "2.1.6-tf", "backend": "tensorflow"}}