{"modelTopology": {"training_config": {"loss": "sparse_categorical_crossentropy", "loss_weights": null, "metrics": ["accuracy"], "optimizer_config": {"class_name": "Adam", "config": {"beta_1": 0.8999999761581421, "beta_2": 0.9990000128746033, "decay": 0.0, "epsilon": 1e-07, "amsgrad": false, "lr": 0.0010000000474974513}}, "weighted_metrics": null, "sample_weight_mode": null}, "keras_version": "2.1.6-tf", "model_config": {"class_name": "Sequential", "config": {"layers": [{"class_name": "Flatten", "config": {"dtype": "float32", "batch_input_shape": [null, 28, 28], "trainable": true, "name": "flatten", "data_format": "channels_last"}}, {"class_name": "Dense", "config": {"kernel_initializer": {"class_name": "GlorotUniform", "config": {"dtype": "float32", "seed": null}}, "name": "dense", "kernel_constraint": null, "bias_regularizer": null, "bias_constraint": null, "dtype": "float32", "activation": "relu", "trainable": true, "kernel_regularizer": null, "bias_initializer": {"class_name": "Zeros", "config": {"dtype": "float32"}}, "units": 128, "use_bias": true, "activity_regularizer": null}}, {"class_name": "Dense", "config": {"kernel_initializer": {"class_name": "GlorotUniform", "config": {"dtype": "float32", "seed": null}}, "name": "dense_1", "kernel_constraint": null, "bias_regularizer": null, "bias_constraint": null, "dtype": "float32", "activation": "relu", "trainable": true, "kernel_regularizer": null, "bias_initializer": {"class_name": "Zeros", "config": {"dtype": "float32"}}, "units": 128, "use_bias": true, "activity_regularizer": null}}, {"class_name": "Dense", "config": {"kernel_initializer": {"class_name": "GlorotUniform", "config": {"dtype": "float32", "seed": null}}, "name": "dense_2", "kernel_constraint": null, "bias_regularizer": null, "bias_constraint": null, "dtype": "float32", "activation": "softmax", "trainable": true, "kernel_regularizer": null, "bias_initializer": {"class_name": "Zeros", "config": {"dtype": "float32"}}, "units": 10, "use_bias": true, "activity_regularizer": null}}], "name": "sequential"}}, "backend": "tensorflow"}, "weightsManifest": [{"paths": ["group1-shard1of1"], "weights": [{"dtype": "float32", "shape": [784, 128], "name": "dense/kernel"}, {"dtype": "float32", "shape": [128], "name": "dense/bias"}, {"dtype": "float32", "shape": [128, 128], "name": "dense_1/kernel"}, {"dtype": "float32", "shape": [128], "name": "dense_1/bias"}, {"dtype": "float32", "shape": [128, 10], "name": "dense_2/kernel"}, {"dtype": "float32", "shape": [10], "name": "dense_2/bias"}]}]}